…
[38;5;15mdataloader[39m[38;5;204m.[39m[38;5;15mevaluator[39m[38;5;204m.[39m[38;5;15moutput_dir[39m[38;5;15m [39m[38;5;204m=[39m[38;5;15m [39m[38;5;15mtrain[39m[38;5;204m.[39m[38;5;15moutput_dir[39m

[07/15 13:32:34] d2.config.lazy WARNING: The config contains objects that cannot serialize to a valid yaml. ./output/dino_simple_vit/config.yaml is human-readable but cannot be loaded.
[07/15 13:32:34] d2.config.lazy WARNING: Config is saved using cloudpickle at ./output/dino_simple_vit/config.yaml.pkl.
[07/15 13:32:34] detectron2 INFO: Full config saved to ./output/dino_simple_vit/config.yaml
[07/15 13:32:34] d2.utils.env INFO: Using a generated random seed 34946078
[07/15 13:32:34] detectron2 INFO: Model:
DINO(
  (backbone): SimpleFeaturePyramid(
    (simfp_3): Sequential(
      (0): ConvTranspose2d(192, 96, kernel_size=(2, 2), stride=(2, 2))
      (1): Conv2d(
        96, 256, kernel_size=(1, 1), stride=(1, 1), bias=False
        (norm): LayerNorm()
      )
      (2): Conv2d(
        256, 256, kernel_size=(3, 3), stride=(1, 1), padding=(1, 1), bias=False
        (norm): LayerNorm()
      )
    )
    (simfp_4): Sequential(
      (0): Conv2d(
        192, 256, kernel_size=(1, 1), stride=(1, 1), bias=False
        (norm): LayerNorm()
      )
      (1): Conv2d(
        256, 256, kernel_size=(3, 3), stride=(1, 1), padding=(1, 1), bias=False
        (norm): LayerNorm()
      )
    )
    (simfp_5): Sequential(
      (0): MaxPool2d(kernel_size=2, stride=2, padding=0, dilation=1, ceil_mode=False)
      (1): Conv2d(
        192, 256, kernel_size=(1, 1), stride=(1, 1), bias=False
        (norm): LayerNorm()
      )
      (2): Conv2d(
        256, 256, kernel_size=(3, 3), stride=(1, 1), padding=(1, 1), bias=False
        (norm): LayerNorm()
      )
    )
    (net): SimpleViT(
      (vit): SimpleVisionTransformer(
        (conv_proj): Conv2d(3, 192, kernel_size=(16, 16), stride=(16, 16))
        (encoder): Encoder(
          (dropout): Dropout(p=0.1, inplace=False)
          (layers): Sequential(
            (encoder_layer_0): EncoderBlock(
              (ln_1): LayerNorm((192,), eps=1e-06, elementwise_affine=True)
              (self_attention): MultiheadAttention(
                (out_proj): NonDynamicallyQuantizableLinear(in_features=192, out_features=192, bias=True)
              )
              (dropout): Dropout(p=0.1, inplace=False)
              (ln_2): LayerNorm((192,), eps=1e-06, elementwise_affine=True)
              (mlp): MLPBlock(
                (linear_1): Linear(in_features=192, out_features=768, bias=True)
                (activation): GELU(approximate='none')
                (dropout_1): Dropout(p=0.1, inplace=False)
                (linear_2): Linear(in_features=768, out_features=192, bias=True)
                (dropout_2): Dropout(p=0.1, inplace=False)
              )
            )
            (encoder_layer_1): EncoderBlock(
              (ln_1): LayerNorm((192,), eps=1e-06, elementwise_affine=True)
              (self_attention): MultiheadAttention(
                (out_proj): NonDynamicallyQuantizableLinear(in_features=192, out_features=192, bias=True)
              )
              (dropout): Dropout(p=0.1, inplace=False)
              (ln_2): LayerNorm((192,), eps=1e-06, elementwise_affine=True)
              (mlp): MLPBlock(
                (linear_1): Linear(in_features=192, out_features=768, bias=True)
                (activation): GELU(approximate='none')
                (dropout_1): Dropout(p=0.1, inplace=False)
                (linear_2): Linear(in_features=768, out_features=192, bias=True)
                (dropout_2): Dropout(p=0.1, inplace=False)
              )
            )
            (encoder_layer_2): EncoderBlock(
              (ln_1): LayerNorm((192,), eps=1e-06, elementwise_affine=True)
              (self_attention): MultiheadAttention(
                (out_proj): NonDynamicallyQuantizableLinear(in_features=192, out_features=192, bias=True)
              )
              (dropout): Dropout(p=0.1, inplace=False)
              (ln_2): LayerNorm((192,), eps=1e-06, elementwise_affine=True)
              (mlp): MLPBlock(
                (linear_1): Linear(in_features=192, out_features=768, bias=True)
                (activation): GELU(approximate='none')
                (dropout_1): Dropout(p=0.1, inplace=False)
                (linear_2): Linear(in_features=768, out_features=192, bias=True)
                (dropout_2): Dropout(p=0.1, inplace=False)
              )
            )
            (encoder_layer_3): EncoderBlock(
              (ln_1): LayerNorm((192,), eps=1e-06, elementwise_affine=True)
              (self_attention): MultiheadAttention(
                (out_proj): NonDynamicallyQuantizableLinear(in_features=192, out_features=192, bias=True)
              )
              (dropout): Dropout(p=0.1, inplace=False)
              (ln_2): LayerNorm((192,), eps=1e-06, elementwise_affine=True)
              (mlp): MLPBlock(
                (linear_1): Linear(in_features=192, out_features=768, bias=True)
                (activation): GELU(approximate='none')
                (dropout_1): Dropout(p=0.1, inplace=False)
                (linear_2): Linear(in_features=768, out_features=192, bias=True)
                (dropout_2): Dropout(p=0.1, inplace=False)
              )
            )
            (encoder_layer_4): EncoderBlock(
              (ln_1): LayerNorm((192,), eps=1e-06, elementwise_affine=True)
              (self_attention): MultiheadAttention(
                (out_proj): NonDynamicallyQuantizableLinear(in_features=192, out_features=192, bias=True)
              )
              (dropout): Dropout(p=0.1, inplace=False)
              (ln_2): LayerNorm((192,), eps=1e-06, elementwise_affine=True)
              (mlp): MLPBlock(
                (linear_1): Linear(in_features=192, out_features=768, bias=True)
                (activation): GELU(approximate='none')
                (dropout_1): Dropout(p=0.1, inplace=False)
                (linear_2): Linear(in_features=768, out_features=192, bias=True)
                (dropout_2): Dropout(p=0.1, inplace=False)
              )
            )
            (encoder_layer_5): EncoderBlock(
              (ln_1): LayerNorm((192,), eps=1e-06, elementwise_affine=True)
              (self_attention): MultiheadAttention(
                (out_proj): NonDynamicallyQuantizableLinear(in_features=192, out_features=192, bias=True)
              )
              (dropout): Dropout(p=0.1, inplace=False)
              (ln_2): LayerNorm((192,), eps=1e-06, elementwise_affine=True)
              (mlp): MLPBlock(
                (linear_1): Linear(in_features=192, out_features=768, bias=True)
                (activation): GELU(approximate='none')
                (dropout_1): Dropout(p=0.1, inplace=False)
                (linear_2): Linear(in_features=768, out_features=192, bias=True)
                (dropout_2): Dropout(p=0.1, inplace=False)
              )
            )
            (encoder_layer_6): EncoderBlock(
              (ln_1): LayerNorm((192,), eps=1e-06, elementwise_affine=True)
              (self_attention): MultiheadAttention(
                (out_proj): NonDynamicallyQuantizableLinear(in_features=192, out_features=192, bias=True)
              )
              (dropout): Dropout(p=0.1, inplace=False)
              (ln_2): LayerNorm((192,), eps=1e-06, elementwise_affine=True)
              (mlp): MLPBlock(
                (linear_1): Linear(in_features=192, out_features=768, bias=True)
                (activation): GELU(approximate='none')
                (dropout_1): Dropout(p=0.1, inplace=False)
                (linear_2): Linear(in_features=768, out_features=192, bias=True)
                (dropout_2): Dropout(p=0.1, inplace=False)
              )
            )
            (encoder_layer_7): EncoderBlock(
              (ln_1): LayerNorm((192,), eps=1e-06, elementwise_affine=True)
              (self_attention): MultiheadAttention(
                (out_proj): NonDynamicallyQuantizableLinear(in_features=192, out_features=192, bias=True)
              )
              (dropout): Dropout(p=0.1, inplace=False)
              (ln_2): LayerNorm((192,), eps=1e-06, elementwise_affine=True)
              (mlp): MLPBlock(
                (linear_1): Linear(in_features=192, out_features=768, bias=True)
                (activation): GELU(approximate='none')
                (dropout_1): Dropout(p=0.1, inplace=False)
                (linear_2): Linear(in_features=768, out_features=192, bias=True)
                (dropout_2): Dropout(p=0.1, inplace=False)
              )
            )
            (encoder_layer_8): EncoderBlock(
              (ln_1): LayerNorm((192,), eps=1e-06, elementwise_affine=True)
              (self_attention): MultiheadAttention(
                (out_proj): NonDynamicallyQuantizableLinear(in_features=192, out_features=192, bias=True)
              )
              (dropout): Dropout(p=0.1, inplace=False)
              (ln_2): LayerNorm((192,), eps=1e-06, elementwise_affine=True)
              (mlp): MLPBlock(
                (linear_1): Linear(in_features=192, out_features=768, bias=True)
                (activation): GELU(approximate='none')
                (dropout_1): Dropout(p=0.1, inplace=False)
                (linear_2): Linear(in_features=768, out_features=192, bias=True)
                (dropout_2): Dropout(p=0.1, inplace=False)
              )
            )
            (encoder_layer_9): EncoderBlock(
              (ln_1): LayerNorm((192,), eps=1e-06, elementwise_affine=True)
              (self_attention): MultiheadAttention(
                (out_proj): NonDynamicallyQuantizableLinear(in_features=192, out_features=192, bias=True)
              )
              (dropout): Dropout(p=0.1, inplace=False)
              (ln_2): LayerNorm((192,), eps=1e-06, elementwise_affine=True)
              (mlp): MLPBlock(
                (linear_1): Linear(in_features=192, out_features=768, bias=True)
                (activation): GELU(approximate='none')
                (dropout_1): Dropout(p=0.1, inplace=False)
                (linear_2): Linear(in_features=768, out_features=192, bias=True)
                (dropout_2): Dropout(p=0.1, inplace=False)
              )
            )
            (encoder_layer_10): EncoderBlock(
              (ln_1): LayerNorm((192,), eps=1e-06, elementwise_affine=True)
              (self_attention): MultiheadAttention(
                (out_proj): NonDynamicallyQuantizableLinear(in_features=192, out_features=192, bias=True)
              )
              (dropout): Dropout(p=0.1, inplace=False)
              (ln_2): LayerNorm((192,), eps=1e-06, elementwise_affine=True)
              (mlp): MLPBlock(
                (linear_1): Linear(in_features=192, out_features=768, bias=True)
                (activation): GELU(approximate='none')
                (dropout_1): Dropout(p=0.1, inplace=False)
                (linear_2): Linear(in_features=768, out_features=192, bias=True)
                (dropout_2): Dropout(p=0.1, inplace=False)
              )
            )
            (encoder_layer_11): EncoderBlock(
              (ln_1): LayerNorm((192,), eps=1e-06, elementwise_affine=True)
              (self_attention): MultiheadAttention(
                (out_proj): NonDynamicallyQuantizableLinear(in_features=192, out_features=192, bias=True)
              )
              (dropout): Dropout(p=0.1, inplace=False)
              (ln_2): LayerNorm((192,), eps=1e-06, elementwise_affine=True)
              (mlp): MLPBlock(
                (linear_1): Linear(in_features=192, out_features=768, bias=True)
                (activation): GELU(approximate='none')
                (dropout_1): Dropout(p=0.1, inplace=False)
                (linear_2): Linear(in_features=768, out_features=192, bias=True)
                (dropout_2): Dropout(p=0.1, inplace=False)
              )
            )
          )
          (ln): LayerNorm((192,), eps=1e-06, elementwise_affine=True)
        )
        (heads): Sequential(
          (head): Linear(in_features=192, out_features=0, bias=True)
        )
      )
    )
    (top_block): LastLevelMaxPool()
  )
  (position_embedding): PositionEmbeddingSine()
  (neck): ChannelMapper(
    (convs): ModuleList(
      (0-3): 4 x ConvNormAct(
        (conv): Conv2d(256, 256, kernel_size=(1, 1), stride=(1, 1))
        (norm): GroupNorm(32, 256, eps=1e-05, affine=True)
      )
    )
  )
  (transformer): DINOTransformer(
    (encoder): DINOTransformerEncoder(
      (layers): ModuleList(
        (0-5): 6 x BaseTransformerLayer(
          (attentions): ModuleList(
            (0): MultiScaleDeformableAttention(
              (dropout): Dropout(p=0.0, inplace=False)
              (sampling_offsets): Linear(in_features=256, out_features=256, bias=True)
              (attention_weights): Linear(in_features=256, out_features=128, bias=True)
              (value_proj): Linear(in_features=256, out_features=256, bias=True)
              (output_proj): Linear(in_features=256, out_features=256, bias=True)
            )
          )
          (ffns): ModuleList(
            (0): FFN(
              (activation): ReLU(inplace=True)
              (layers): Sequential(
                (0): Sequential(
                  (0): Linear(in_features=256, out_features=2048, bias=True)
                  (1): ReLU(inplace=True)
                  (2): Dropout(p=0.0, inplace=False)
                )
                (1): Linear(in_features=2048, out_features=256, bias=True)
                (2): Dropout(p=0.0, inplace=False)
              )
            )
          )
          (norms): ModuleList(
            (0-1): 2 x LayerNorm((256,), eps=1e-05, elementwise_affine=True)
          )
        )
      )
    )
    (decoder): DINOTransformerDecoder(
      (layers): ModuleList(
        (0-5): 6 x BaseTransformerLayer(
          (attentions): ModuleList(
            (0): MultiheadAttention(
              (attn): MultiheadAttention(
                (out_proj): NonDynamicallyQuantizableLinear(in_features=256, out_features=256, bias=True)
              )
              (proj_drop): Dropout(p=0.0, inplace=False)
            )
            (1): MultiScaleDeformableAttention(
              (dropout): Dropout(p=0.0, inplace=False)
              (sampling_offsets): Linear(in_features=256, out_features=256, bias=True)
              (attention_weights): Linear(in_features=256, out_features=128, bias=True)
              (value_proj): Linear(in_features=256, out_features=256, bias=True)
              (output_proj): Linear(in_features=256, out_features=256, bias=True)
            )
          )
          (ffns): ModuleList(
            (0): FFN(
              (activation): ReLU(inplace=True)
              (layers): Sequential(
                (0): Sequential(
                  (0): Linear(in_features=256, out_features=2048, bias=True)
                  (1): ReLU(inplace=True)
                  (2): Dropout(p=0.0, inplace=False)
                )
                (1): Linear(in_features=2048, out_features=256, bias=True)
                (2): Dropout(p=0.0, inplace=False)
              )
            )
          )
          (norms): ModuleList(
            (0-2): 3 x LayerNorm((256,), eps=1e-05, elementwise_affine=True)
          )
        )
      )
      (ref_point_head): MLP(
        (layers): ModuleList(
          (0): Linear(in_features=512, out_features=256, bias=True)
          (1): Linear(in_features=256, out_features=256, bias=True)
        )
      )
      (norm): LayerNorm((256,), eps=1e-05, elementwise_affine=True)
      (class_embed): ModuleList(
        (0-6): 7 x Linear(in_features=256, out_features=80, bias=True)
      )
      (bbox_embed): ModuleList(
        (0-6): 7 x MLP(
          (layers): ModuleList(
            (0-1): 2 x Linear(in_features=256, out_features=256, bias=True)
            (2): Linear(in_features=256, out_features=4, bias=True)
          )
        )
      )
    )
    (tgt_embed): Embedding(900, 256)
    (enc_output): Linear(in_features=256, out_features=256, bias=True)
    (enc_output_norm): LayerNorm((256,), eps=1e-05, elementwise_affine=True)
  )
  (class_embed): ModuleList(
    (0-6): 7 x Linear(in_features=256, out_features=80, bias=True)
  )
  (bbox_embed): ModuleList(
    (0-6): 7 x MLP(
      (layers): ModuleList(
        (0-1): 2 x Linear(in_features=256, out_features=256, bias=True)
        (2): Linear(in_features=256, out_features=4, bias=True)
      )
    )
  )
  (criterion): Criterion DINOCriterion
      matcher: Matcher HungarianMatcher
          cost_class: 2.0
          cost_bbox: 5.0
          cost_giou: 2.0
          cost_class_type: focal_loss_cost
          focal cost alpha: 0.25
          focal cost gamma: 2.0
      losses: ['class', 'boxes']
      loss_class_type: focal_loss
      we
…
[38;5;15mdataloader[39m[38;5;204m.[39m[38;5;15mevaluator[39m[38;5;204m.[39m[38;5;15moutput_dir[39m[38;5;15m [39m[38;5;204m=[39m[38;5;15m [39m[38;5;15mtrain[39m[38;5;204m.[39m[38;5;15moutput_dir[39m

[07/15 13:46:33] d2.config.lazy WARNING: The config contains objects that cannot serialize to a valid yaml. ./output/dino_simple_vit/config.yaml is human-readable but cannot be loaded.
[07/15 13:46:33] d2.config.lazy WARNING: Config is saved using cloudpickle at ./output/dino_simple_vit/config.yaml.pkl.
[07/15 13:46:33] detectron2 INFO: Full config saved to ./output/dino_simple_vit/config.yaml
[07/15 13:46:33] d2.utils.env INFO: Using a generated random seed 34031454
[07/15 13:46:33] detectron2 INFO: Model:
DINO(
  (backbone): SimpleFeaturePyramid(
    (simfp_3): Sequential(
      (0): ConvTranspose2d(768, 384, kernel_size=(2, 2), stride=(2, 2))
      (1): Conv2d(
        384, 256, kernel_size=(1, 1), stride=(1, 1), bias=False
        (norm): LayerNorm()
      )
      (2): Conv2d(
        256, 256, kernel_size=(3, 3), stride=(1, 1), padding=(1, 1), bias=False
        (norm): LayerNorm()
      )
    )
    (simfp_4): Sequential(
      (0): Conv2d(
        768, 256, kernel_size=(1, 1), stride=(1, 1), bias=False
        (norm): LayerNorm()
      )
      (1): Conv2d(
        256, 256, kernel_size=(3, 3), stride=(1, 1), padding=(1, 1), bias=False
        (norm): LayerNorm()
      )
    )
    (simfp_5): Sequential(
      (0): MaxPool2d(kernel_size=2, stride=2, padding=0, dilation=1, ceil_mode=False)
      (1): Conv2d(
        768, 256, kernel_size=(1, 1), stride=(1, 1), bias=False
        (norm): LayerNorm()
      )
      (2): Conv2d(
        256, 256, kernel_size=(3, 3), stride=(1, 1), padding=(1, 1), bias=False
        (norm): LayerNorm()
      )
    )
    (net): SimpleViT(
      (vit): SimpleVisionTransformer(
        (conv_proj): Conv2d(3, 768, kernel_size=(16, 16), stride=(16, 16))
        (encoder): Encoder(
          (dropout): Dropout(p=0.1, inplace=False)
          (layers): Sequential(
            (encoder_layer_0): EncoderBlock(
              (ln_1): LayerNorm((768,), eps=1e-06, elementwise_affine=True)
              (self_attention): MultiheadAttention(
                (out_proj): NonDynamicallyQuantizableLinear(in_features=768, out_features=768, bias=True)
              )
              (dropout): Dropout(p=0.1, inplace=False)
              (ln_2): LayerNorm((768,), eps=1e-06, elementwise_affine=True)
              (mlp): MLPBlock(
                (linear_1): Linear(in_features=768, out_features=3072, bias=True)
                (activation): GELU(approximate='none')
                (dropout_1): Dropout(p=0.1, inplace=False)
                (linear_2): Linear(in_features=3072, out_features=768, bias=True)
                (dropout_2): Dropout(p=0.1, inplace=False)
              )
            )
            (encoder_layer_1): EncoderBlock(
              (ln_1): LayerNorm((768,), eps=1e-06, elementwise_affine=True)
              (self_attention): MultiheadAttention(
                (out_proj): NonDynamicallyQuantizableLinear(in_features=768, out_features=768, bias=True)
              )
              (dropout): Dropout(p=0.1, inplace=False)
              (ln_2): LayerNorm((768,), eps=1e-06, elementwise_affine=True)
              (mlp): MLPBlock(
                (linear_1): Linear(in_features=768, out_features=3072, bias=True)
                (activation): GELU(approximate='none')
                (dropout_1): Dropout(p=0.1, inplace=False)
                (linear_2): Linear(in_features=3072, out_features=768, bias=True)
                (dropout_2): Dropout(p=0.1, inplace=False)
              )
            )
            (encoder_layer_2): EncoderBlock(
              (ln_1): LayerNorm((768,), eps=1e-06, elementwise_affine=True)
              (self_attention): MultiheadAttention(
                (out_proj): NonDynamicallyQuantizableLinear(in_features=768, out_features=768, bias=True)
              )
              (dropout): Dropout(p=0.1, inplace=False)
              (ln_2): LayerNorm((768,), eps=1e-06, elementwise_affine=True)
              (mlp): MLPBlock(
                (linear_1): Linear(in_features=768, out_features=3072, bias=True)
                (activation): GELU(approximate='none')
                (dropout_1): Dropout(p=0.1, inplace=False)
                (linear_2): Linear(in_features=3072, out_features=768, bias=True)
                (dropout_2): Dropout(p=0.1, inplace=False)
              )
            )
            (encoder_layer_3): EncoderBlock(
              (ln_1): LayerNorm((768,), eps=1e-06, elementwise_affine=True)
              (self_attention): MultiheadAttention(
                (out_proj): NonDynamicallyQuantizableLinear(in_features=768, out_features=768, bias=True)
              )
              (dropout): Dropout(p=0.1, inplace=False)
              (ln_2): LayerNorm((768,), eps=1e-06, elementwise_affine=True)
              (mlp): MLPBlock(
                (linear_1): Linear(in_features=768, out_features=3072, bias=True)
                (activation): GELU(approximate='none')
                (dropout_1): Dropout(p=0.1, inplace=False)
                (linear_2): Linear(in_features=3072, out_features=768, bias=True)
                (dropout_2): Dropout(p=0.1, inplace=False)
              )
            )
            (encoder_layer_4): EncoderBlock(
              (ln_1): LayerNorm((768,), eps=1e-06, elementwise_affine=True)
              (self_attention): MultiheadAttention(
                (out_proj): NonDynamicallyQuantizableLinear(in_features=768, out_features=768, bias=True)
              )
              (dropout): Dropout(p=0.1, inplace=False)
              (ln_2): LayerNorm((768,), eps=1e-06, elementwise_affine=True)
              (mlp): MLPBlock(
                (linear_1): Linear(in_features=768, out_features=3072, bias=True)
                (activation): GELU(approximate='none')
                (dropout_1): Dropout(p=0.1, inplace=False)
                (linear_2): Linear(in_features=3072, out_features=768, bias=True)
                (dropout_2): Dropout(p=0.1, inplace=False)
              )
            )
            (encoder_layer_5): EncoderBlock(
              (ln_1): LayerNorm((768,), eps=1e-06, elementwise_affine=True)
              (self_attention): MultiheadAttention(
                (out_proj): NonDynamicallyQuantizableLinear(in_features=768, out_features=768, bias=True)
              )
              (dropout): Dropout(p=0.1, inplace=False)
              (ln_2): LayerNorm((768,), eps=1e-06, elementwise_affine=True)
              (mlp): MLPBlock(
                (linear_1): Linear(in_features=768, out_features=3072, bias=True)
                (activation): GELU(approximate='none')
                (dropout_1): Dropout(p=0.1, inplace=False)
                (linear_2): Linear(in_features=3072, out_features=768, bias=True)
                (dropout_2): Dropout(p=0.1, inplace=False)
              )
            )
            (encoder_layer_6): EncoderBlock(
              (ln_1): LayerNorm((768,), eps=1e-06, elementwise_affine=True)
              (self_attention): MultiheadAttention(
                (out_proj): NonDynamicallyQuantizableLinear(in_features=768, out_features=768, bias=True)
              )
              (dropout): Dropout(p=0.1, inplace=False)
              (ln_2): LayerNorm((768,), eps=1e-06, elementwise_affine=True)
              (mlp): MLPBlock(
                (linear_1): Linear(in_features=768, out_features=3072, bias=True)
                (activation): GELU(approximate='none')
                (dropout_1): Dropout(p=0.1, inplace=False)
                (linear_2): Linear(in_features=3072, out_features=768, bias=True)
                (dropout_2): Dropout(p=0.1, inplace=False)
              )
            )
            (encoder_layer_7): EncoderBlock(
              (ln_1): LayerNorm((768,), eps=1e-06, elementwise_affine=True)
              (self_attention): MultiheadAttention(
                (out_proj): NonDynamicallyQuantizableLinear(in_features=768, out_features=768, bias=True)
              )
              (dropout): Dropout(p=0.1, inplace=False)
              (ln_2): LayerNorm((768,), eps=1e-06, elementwise_affine=True)
              (mlp): MLPBlock(
                (linear_1): Linear(in_features=768, out_features=3072, bias=True)
                (activation): GELU(approximate='none')
                (dropout_1): Dropout(p=0.1, inplace=False)
                (linear_2): Linear(in_features=3072, out_features=768, bias=True)
                (dropout_2): Dropout(p=0.1, inplace=False)
              )
            )
            (encoder_layer_8): EncoderBlock(
              (ln_1): LayerNorm((768,), eps=1e-06, elementwise_affine=True)
              (self_attention): MultiheadAttention(
                (out_proj): NonDynamicallyQuantizableLinear(in_features=768, out_features=768, bias=True)
              )
              (dropout): Dropout(p=0.1, inplace=False)
              (ln_2): LayerNorm((768,), eps=1e-06, elementwise_affine=True)
              (mlp): MLPBlock(
                (linear_1): Linear(in_features=768, out_features=3072, bias=True)
                (activation): GELU(approximate='none')
                (dropout_1): Dropout(p=0.1, inplace=False)
                (linear_2): Linear(in_features=3072, out_features=768, bias=True)
                (dropout_2): Dropout(p=0.1, inplace=False)
              )
            )
            (encoder_layer_9): EncoderBlock(
              (ln_1): LayerNorm((768,), eps=1e-06, elementwise_affine=True)
              (self_attention): MultiheadAttention(
                (out_proj): NonDynamicallyQuantizableLinear(in_features=768, out_features=768, bias=True)
              )
              (dropout): Dropout(p=0.1, inplace=False)
              (ln_2): LayerNorm((768,), eps=1e-06, elementwise_affine=True)
              (mlp): MLPBlock(
                (linear_1): Linear(in_features=768, out_features=3072, bias=True)
                (activation): GELU(approximate='none')
                (dropout_1): Dropout(p=0.1, inplace=False)
                (linear_2): Linear(in_features=3072, out_features=768, bias=True)
                (dropout_2): Dropout(p=0.1, inplace=False)
              )
            )
            (encoder_layer_10): EncoderBlock(
              (ln_1): LayerNorm((768,), eps=1e-06, elementwise_affine=True)
              (self_attention): MultiheadAttention(
                (out_proj): NonDynamicallyQuantizableLinear(in_features=768, out_features=768, bias=True)
              )
              (dropout): Dropout(p=0.1, inplace=False)
              (ln_2): LayerNorm((768,), eps=1e-06, elementwise_affine=True)
              (mlp): MLPBlock(
                (linear_1): Linear(in_features=768, out_features=3072, bias=True)
                (activation): GELU(approximate='none')
                (dropout_1): Dropout(p=0.1, inplace=False)
                (linear_2): Linear(in_features=3072, out_features=768, bias=True)
                (dropout_2): Dropout(p=0.1, inplace=False)
              )
            )
            (encoder_layer_11): EncoderBlock(
              (ln_1): LayerNorm((768,), eps=1e-06, elementwise_affine=True)
              (self_attention): MultiheadAttention(
                (out_proj): NonDynamicallyQuantizableLinear(in_features=768, out_features=768, bias=True)
              )
              (dropout): Dropout(p=0.1, inplace=False)
              (ln_2): LayerNorm((768,), eps=1e-06, elementwise_affine=True)
              (mlp): MLPBlock(
                (linear_1): Linear(in_features=768, out_features=3072, bias=True)
                (activation): GELU(approximate='none')
                (dropout_1): Dropout(p=0.1, inplace=False)
                (linear_2): Linear(in_features=3072, out_features=768, bias=True)
                (dropout_2): Dropout(p=0.1, inplace=False)
              )
            )
          )
          (ln): LayerNorm((768,), eps=1e-06, elementwise_affine=True)
        )
        (heads): Sequential(
          (head): Linear(in_features=768, out_features=0, bias=True)
        )
      )
    )
    (top_block): LastLevelMaxPool()
  )
  (position_embedding): PositionEmbeddingSine()
  (neck): ChannelMapper(
    (convs): ModuleList(
      (0-3): 4 x ConvNormAct(
        (conv): Conv2d(256, 256, kernel_size=(1, 1), stride=(1, 1))
        (norm): GroupNorm(32, 256, eps=1e-05, affine=True)
      )
    )
  )
  (transformer): DINOTransformer(
    (encoder): DINOTransformerEncoder(
      (layers): ModuleList(
        (0-5): 6 x BaseTransformerLayer(
          (attentions): ModuleList(
            (0): MultiScaleDeformableAttention(
              (dropout): Dropout(p=0.0, inplace=False)
              (sampling_offsets): Linear(in_features=256, out_features=256, bias=True)
              (attention_weights): Linear(in_features=256, out_features=128, bias=True)
              (value_proj): Linear(in_features=256, out_features=256, bias=True)
              (output_proj): Linear(in_features=256, out_features=256, bias=True)
            )
          )
          (ffns): ModuleList(
            (0): FFN(
              (activation): ReLU(inplace=True)
              (layers): Sequential(
                (0): Sequential(
                  (0): Linear(in_features=256, out_features=2048, bias=True)
                  (1): ReLU(inplace=True)
                  (2): Dropout(p=0.0, inplace=False)
                )
                (1): Linear(in_features=2048, out_features=256, bias=True)
                (2): Dropout(p=0.0, inplace=False)
              )
            )
          )
          (norms): ModuleList(
            (0-1): 2 x LayerNorm((256,), eps=1e-05, elementwise_affine=True)
          )
        )
      )
    )
    (decoder): DINOTransformerDecoder(
      (layers): ModuleList(
        (0-5): 6 x BaseTransformerLayer(
          (attentions): ModuleList(
            (0): MultiheadAttention(
              (attn): MultiheadAttention(
                (out_proj): NonDynamicallyQuantizableLinear(in_features=256, out_features=256, bias=True)
              )
              (proj_drop): Dropout(p=0.0, inplace=False)
            )
            (1): MultiScaleDeformableAttention(
              (dropout): Dropout(p=0.0, inplace=False)
              (sampling_offsets): Linear(in_features=256, out_features=256, bias=True)
              (attention_weights): Linear(in_features=256, out_features=128, bias=True)
              (value_proj): Linear(in_features=256, out_features=256, bias=True)
              (output_proj): Linear(in_features=256, out_features=256, bias=True)
            )
          )
          (ffns): ModuleList(
            (0): FFN(
              (activation): ReLU(inplace=True)
              (layers): Sequential(
                (0): Sequential(
                  (0): Linear(in_features=256, out_features=2048, bias=True)
                  (1): ReLU(inplace=True)
                  (2): Dropout(p=0.0, inplace=False)
                )
                (1): Linear(in_features=2048, out_features=256, bias=True)
                (2): Dropout(p=0.0, inplace=False)
              )
            )
          )
          (norms): ModuleList(
            (0-2): 3 x LayerNorm((256,), eps=1e-05, elementwise_affine=True)
          )
        )
      )
      (ref_point_head): MLP(
        (layers): ModuleList(
          (0): Linear(in_features=512, out_features=256, bias=True)
          (1): Linear(in_features=256, out_features=256, bias=True)
        )
      )
      (norm): LayerNorm((256,), eps=1e-05, elementwise_affine=True)
      (class_embed): ModuleList(
        (0-6): 7 x Linear(in_features=256, out_features=80, bias=True)
      )
      (bbox_embed): ModuleList(
        (0-6): 7 x MLP(
          (layers): ModuleList(
            (0-1): 2 x Linear(in_features=256, out_features=256, bias=True)
            (2): Linear(in_features=256, out_features=4, bias=True)
          )
        )
      )
    )
    (tgt_embed): Embedding(900, 256)
    (enc_output): Linear(in_features=256, out_features=256, bias=True)
    (enc_output_norm): LayerNorm((256,), eps=1e-05, elementwise_affine=True)
  )
  (class_embed): ModuleList(
    (0-6): 7 x Linear(in_features=256, out_features=80, bias=True)
  )
  (bbox_embed): ModuleList(
    (0-6): 7 x MLP(
      (layers): ModuleList(
        (0-1): 2 x Linear(in_features=256, out_features=256, bias=True)
        (2): Linear(in_features=256, out_features=4, bias=True)
      )
    )
  )
  (criterion): Criterion DINOCriterion
      matcher: Matcher HungarianMatcher
          cost_class: 2.0
          cost_bbox: 5.0
          cost_giou: 2.0
          cost_class_type: focal_loss_cost
          focal cost alpha: 0.25
          focal cost gamma: 2.0
      losses: ['class', 'boxes']
      loss_class_type: focal_loss
      we
…
